…
, nbs=64, hsv_h=0.015, hsv_s=0.7, hsv_v=0.4, degrees=0.0, translate=0.1, scale=0.5, shear=0.0, perspective=0.0, flipud=0.0, fliplr=0.5, mosaic=1.0, mixup=0.0, copy_paste=0.0, cfg=None, v5loader=False, tracker=botsort.yaml, save_dir=runs/detect/train\nDownloading https://ultralytics.com/assets/Arial.ttf to /root/.config/Ultralytics/Arial.ttf...\n```\n\n```\n  0%|          | 0.00/755k [00:00<?, ?B/s]\n```\n\n```\nOverriding model.yaml nc=80 with nc=3\n\n                   from  n    params  module                                       arguments\n  0                  -1  1      2320  ultralytics.nn.modules.Conv                  [3, 80, 3, 2]\n  1                  -1  1    115520  ultralytics.nn.modules.Conv                  [80, 160, 3, 2]\n  2                  -1  3    436800  ultralytics.nn.modules.C2f                   [160, 160, 3, True]\n  3                  -1  1    461440  ultralytics.nn.modules.Conv                  [160, 320, 3, 2]\n  4                  -1  6   3281920  ultralytics.nn.modules.C2f                   [320, 320, 6, True]\n  5                  -1  1   1844480  ultralytics.nn.modules.Conv                  [320, 640, 3, 2]\n  6                  -1  6  13117440  ultralytics.nn.modules.C2f                   [640, 640, 6, True]\n  7                  -1  1   3687680  ultralytics.nn.modules.Conv                  [640, 640, 3, 2]\n  8                  -1  3   6969600  ultralytics.nn.modules.C2f                   [640, 640, 3, True]\n  9                  -1  1   1025920  ultralytics.nn.modules.SPPF                  [640, 640, 5]\n 10                  -1  1         0  torch.nn.modules.upsampling.Upsample         [None, 2, 'nearest']\n 11             [-1, 6]  1         0  ultralytics.nn.modules.Concat                [1]\n 12                  -1  3   7379200  ultralytics.nn.modules.C2f                   [1280, 640, 3]\n 13                  -1  1         0  torch.nn.modules.upsampling.Upsample         [None, 2, 'nearest']\n 14             [-1, 4]  1         0  ultralytics.nn.modules.Concat                [1]\n 15                  -1  3   1948800  ultralytics.nn.modules.C2f                   [960, 320, 3]\n 16                  -1  1    922240  ultralytics.nn.modules.Conv                  [320, 320, 3, 2]\n 17            [-1, 12]  1         0  ultralytics.nn.modules.Concat                [1]\n 18                  -1  3   7174400  ultralytics.nn.modules.C2f                   [960, 640, 3]\n 19                  -1  1   3687680  ultralytics.nn.modules.Conv                  [640, 640, 3, 2]\n 20             [-1, 9]  1         0  ultralytics.nn.modules.Concat                [1]\n 21                  -1  3   7379200  ultralytics.nn.modules.C2f                   [1280, 640, 3]\n 22        [15, 18, 21]  1   8720857  ultralytics.nn.modules.Detect                [3, [320, 640, 640]]\nModel summary: 365 layers, 68155497 parameters, 68155481 gradients, 258.1 GFLOPs\n\nTransferred 589/595 items from pretrained weights\nTensorBoard: Start with 'tensorboard --logdir runs/detect/train', view at http://localhost:6006/\nAMP: running Automatic Mixed Precision (AMP) checks with YOLOv8n...\nDownloading https://github.com/ultralytics/assets/releases/download/v0.0.0/yo
…
